PPO/ppo_ant/policy.pth (torch, 100783 bytes, 12 tensors)

log_std f4 [12]
000000 ba 46 a7 3e 61 e1 02 c0 c7 ad 3f 3f 53 c7 1c 3f
       0.32671148 -2.045006 0.7487454 0.61241645
000010 00 73 00 c0 4c 22 3f 3f 0a 6a 84 3f 1b 8b ae be
       -2.007019 0.7466171 1.034486 -0.34090504
000020 d0 15 2e 3f 6b c3 17 3f 2b aa 70 bd d8 58 44 3f
       0.68002033 0.5928256 -0.058756035 0.76698065

mlp_extractor.policy_net.0.weight f4 [64, 115]
000000 fe 64 1a be 0a 06 43 3d 9f fe 64 3e 9a 16 b8 3c
       -0.15077588 0.04761318 0.22362755 0.022471715
000010 17 6e 8b 3e b6 58 52 3e 10 51 15 be 1a bf 17 3d
       0.2723243 0.20541653 -0.14581704 0.037047483
000020 3d 24 d9 bd a6 fa 87 be 43 3b 16 be a2 fe 55 bd
       -0.10602615 -0.26558417 -0.14671044 -0.05224479
000030 c8 51 ca be f4 64 23 be 50 93 6b bd f7 d2 96 be
       -0.3951552 -0.1595648 -0.057513535 -0.29457828
000040 28 79 07 3d a5 eb 0a be 0c 9b 0b bf a4 8d 8c bd
       0.033074528 -0.13566454 -0.5453346 -0.06862953
000050 5b f6 9d bd 4a 09 d9 3e ed 5d 8b 3e 70 e2 bd 3d
       -0.07713004 0.423899 0.27220097 0.09271705
000060 f6 b0 ac bc f3 f1 85 3b d0 08 38 be a9 b8 66 3e
       -0.021080475 0.0040876805 -0.17972112 0.2253138
000070 19 ac 68 3d 8d 4e 6a 3d 8f 6a 7e be 28 13 b8 3d
       0.05680475 0.057203818 -0.24845336 0.08988029
000080 2a 70 84 3c b8 d1 bd be 21 62 58 3e e2 19 ca 3d
       0.016166765 -0.37074065 0.21131183 0.09868218
000090 74 70 c8 3c 6f 10 13 3f e8 62 98 bd ec b8 c8 3d
       0.024467684 0.5744695 -0.0744074 0.09800896
0000a0 99 ab 13 be 58 cc e2 3e 09 1e af 3e 0f 6f a1 3d
       -0.14420928 0.44296527 0.34202603 0.07882511
0000b0 49 36 b9 3d d3 c9 a4 3d 2d a8 75 be a9 76 00 be
       0.09043557 0.080463074 -0.23989935 -0.12545265
0000c0 ec ea b3 3d de e9 1c 3d 84 b2 c5 be 2b 76 93 bd
       0.08785042 0.03830897 -0.3861276 -0.07200273
0000d0 5c 43 ba 3d 83 1a 00 3f e5 0f 3f 3d 21 33 e2 bd
       0.09094879 0.50040454 0.046646018 -0.11044908
0000e0 03 1f bf 3d ce 6a 34 3e 5a f8 4c bd 66 6d 44 be
       0.09332087 0.17618868 -0.050041534 -0.19182357
0000f0 b6 47 1f 3e 56 f8 2d bd fd 48 0a be b6 80 93 be
       0.155547 -0.04247316 -0.13504405 -0.28809136
000100 42 9a f7 bb a3 fc 38 ba c0 d9 1d 3d 16 0b 8e 3c
       -0.0075562308 -0.0007056689 0.03853774 0.01733927
000110 6d 87 46 bd 7f 49 be be ac e4 0f be fa e9 a8 3c
       -0.048468996 -0.37165448 -0.14052075 0.020619381
000120 77 18 13 be 6e e5 27 3d 97 f1 b2 bc 87 c5 de be
       -0.14364801 0.040990286 -0.021843715 -0.43510076
000130 82 6a 09 3e 57 68 33 3e 3a f8 b1 3e bb 72 13 be
       0.13419536 0.17520271 0.34759694 -0.14399235
000140 58 08 f8 bd 24 35 82 be a4 cc 7e be 45 f4 b7 3e
       -0.121109664 -0.25431168 -0.24882752 0.3592855
000150 f2 8f 2f 3e d9 b6 05 3e aa db 3e be d7 b8 03 be
       0.17144755 0.13058032 -0.18638483 -0.1286348
000160 7a b4 1a bc 02 8c 7c 3c 64 dd 86 bd f7 ee 4b be
       -0.009442443 0.01541424 -0.06585196 -0.19915377
000170 15 62 c0 bc ac d8 69 3e 87 18 1c 3e 69 ba f9 bd
       -0.02348427 0.2283656 0.15243731 -0.12193758
000180 df be f6 bd e4 0b 0c be c7 1c b1 bc e5 94 27 3d
       -0.120481245 -0.13676411 -0.021620167 0.04091348
000190 35 72 76 3e 5f 09 ac 3d ae 88 68 be 92 a1 07 be
       0.24067004 0.08400225 -0.22708389 -0.13245228
0001a0 d0 f5 ed 3e 3f ea 86 3d 1a 0d f5 be de 5c 90 bd
       0.46476603 0.06587648 -0.47861558 -0.07048963
0001b0 56 b3 19 be c6 be 83 3e 9d 9b 18 bc 7e 78 c1 3d
       -0.15009817 0.25731486 -0.009314445 0.0944681
0001c0 ff fc 1e 3d 69 d0 87 be 82 81 6c 3e cc 37 28 be
       0.038815495 -0.26526192 0.23096278 -0.16427535
0001d0 e6 07 d6 bd b5 85 85 3e 7b 5f 7c 3e 2e ac 11 3e
       -0.10450725 0.26078573 0.24645798 0.14225838
0001e0 bd 6f 1d be 3d 57 46 bd a9 aa 5c 3e 5d b9 76 bd
       -0.15374656 -0.04842304 0.21549477 -0.06023537
0001f0 a6 33 b5 be 70 8d ab be 5b 27 4c 3e b1 27 a2 be
       -0.35390967 -0.33506346 0.19936888 -0.31670907
000200 f1 57 65 3c 91 3c 27 be a5 46 74 be 80 28 50 be
       0.013998018 -0.16331698 -0.23855074 -0.2032795
000210 42 80 e0 be 36 27 96 be 18 55 50 bd 87 45 19 be
       -0.43847853 -0.2932679 -0.0508624 -0.14967929
000220 78 8c fd bc 51 1c 66 bd 21 7d e8 bb ba fd 05 be
       -0.03095077 -0.05617935 -0.0070949947 -0.1308507
000230 ad 7c 44 be 9a 0d 0f 3e 87 e2 11 bf 07 af ca bc
       -0.19188185 0.13970032 -0.5698628 -0.024741663
000240 e8 77 5d be fd a5 5f bd 61 6d cf 3b 87 c4 d4 bd
       -0.21627772 -0.054601658 0.0063301777 -0.10389047
000250 51 5e 00 bd 7d 53 b6 bd 46 e1 b4 be 21 5a 24 3c
       -0.031339947 -0.08902643 -0.3532812 0.010031254
000260 67 6d 29 3e 08 b4 13 bd 98 8e c4 3e 20 32 5b 3e
       0.1654564 -0.036060363 0.3839004 0.2140584
000270 60 d4 86 3e 14 3f 69 3e aa 03 21 be a3 42 0b bb
       0.26333904 0.22777969 -0.15724054 -0.0021249435
000280 6b 45 35 3c 4b c5 ef bd 04 f2 70 be f0 5a 1e bb
       0.011063914 -0.117075525 -0.23529822 -0.002416309
000290 a2 e8 49 3e 4e f0 52 3d 63 5e fe bb 29 70 ae bd
       0.19717649 0.051498704 -0.0077627166 -0.085174866
0002a0 6a 8f 08 3c 65 96 ad be 8f 15 1f 3f f1 0c b0 bd
       0.008334974 -0.33903804 0.6214227 -0.085962184
0002b0 91 fd 97 be bc ee 80 bd fc 78 a4 3e 6d 1e c4 3d
       -0.29685643 -0.06295535 0.32123554 0.09576116
0002c0 ab ff cd bd 40 b8 70 bd 86 cc ae bd 63 f0 23 be
       -0.100585304 -0.058769464 -0.085351035 -0.16009669
0002d0 ed 05 4f 3e e0 47 3f bb ec a4 e9 3d a9 1b e9 3d
       0.20217104 -0.0029187128 0.114084095 0.11382229
0002e0 63 da 8e 3d ed 38 87 be e7 54 7c bd c9 68 74 be
       0.06975248 -0.26410618 -0.061604407 -0.23868097
0002f0 2f df 15 3e 55 81 2d 3d 6d 0d af 3e 59 2f 01 be
       0.14635919 0.04235967 0.3418993 -0.12615718
000300 c0 71 58 3e 8f 77 15 be 6a e3 04 be 47 36 0b bd
       0.21137142 -0.14596389 -0.12977377 -0.03398731
000310 a1 3b 0f 3d aa e8 9a 3d 05 cc fb 3d 14 14 67 be
       0.034968976 0.075639084 0.12294773 -0.22566253
000320 84 28 f6 bd 7a 8e 49 be 72 60 cb bd 36 ee 97 3e
       -0.120194465 -0.19683257 -0.09930505 0.29673928
000330 1e 46 ec 3d c0 b3 5f 3c 4a 2d 35 3d 18 83 c4 bd
       0.11536811 0.013653696 0.044232644 -0.09595317
000340 bc 7d d4 bd e9 67 d1 3e 5d 7e 82 3e 25 2e 94 3e
       -0.103755444 0.4089959 0.25487033 0.28941455
000350 9b 85 a1 3c e7 9f 6d 3e 91 8b 64 bd f9 33 4b bd
       0.019717028 0.23205529 -0.055797163 -0.04961011
000360 09 7b 1a be 26 5c 7b 3e 33 85 76 be 30 50 dd bd
       -0.15085997 0.2454687 -0.24074249 -0.1080631
000370 c1 ce 87 3d b3 43 09 bf e6 30 24 be 84 bc 0a 3e
       0.06631232 -0.53618926 -0.16034278 0.13548476
000380 60 d7 ba be 1f 45 48 3e d5 ef 0f 3e 08 e7 bc 3c
       -0.36492443 0.19557618 0.14056332 0.023059383
000390 7c 66 c9 be 31 09 98 3e 19 11 4a be 44 0e dc 3d
       -0.39336002 0.29694512 -0.19733085 0.107449085
0003a0 26 7e 1e bd 2e 52 60 3e cf 80 ff bb 59 f2 5b be
       -0.038694523 0.21906349 -0.0077973376 -0.21479167
0003b0 fc 83 85 3b f9 1a 4a be 2f b7 fc be f7 bf 25 be
       0.0040745717 -0.19736852 -0.49358508 -0.1618651
0003c0 4c 46 f9 3c f1 41 01 3e c7 a7 83 be 88 48 e9 be
       0.030429028 0.12622811 -0.2571394 -0.4556315
0003d0 53 7c cb bd ef 7a 28 be 07 68 d1 3d 4f bc 19 3e
       -0.09935822 -0.16453145 0.1022492 0.1501324
0003e0 29 41 c1 3d b2 b5 94 be 71 e4 78 be 94 86 37 be
       0.094362564 -0.29044873 -0.24305893 -0.17922431
0003f0 87 98 fe bd ef 1c 6b 3e 53 33 ab be b6 41 68 be
       -0.12431436 0.22960256 -0.33437595 -0.22681317

mlp_extractor.policy_net.0.bias f4 [64]
000000 d1 42 82 3d 42 4e 3d 3e 28 85 a9 bc 73 5a 61 be
       0.063604005 0.18486884 -0.020693377 -0.2200716
000010 0a dc 6a be e3 1b 16 be 2d 6d cc 3c 73 bb 92 bd
       -0.229355 -0.14659075 0.024954403 -0.07164659
000020 6f 64 fc 3d a9 b7 97 bd ae 24 4d be d8 bd ae bd
       0.12323844 -0.07408077 -0.20033523 -0.085323036
000030 b8 f2 0f be 4b 27 10 be 47 9d 16 3d 4b f1 3c 3b
       -0.14057434 -0.14077489 0.036771085 0.0028830345
000040 c0 70 04 3e af 20 af 3d 15 a1 ab bd 94 ab 5d bd
       0.12933636 0.08551156 -0.08380333 -0.054118708
000050 bc 94 84 3d b2 22 1f 3d bb ed 6f 3e ed e1 dc 3d
       0.06473681 0.038851447 0.2343053 0.107852794
000060 a4 9d 58 be ab a1 3b 3d eb 01 67 3d 43 0e ce 3c
       -0.21153885 0.045808475 0.056398313 0.025153285
000070 ec 00 67 bb 4b 72 16 3e b1 fa 89 3e c3 d7 17 bd
       -0.0035248352 0.14692037 0.26949075 -0.037071
000080 90 83 7c bd 46 27 13 3e 5e 5f ae 3d 91 0f 1d 3e
       -0.061648905 0.1437045 0.085142836 0.1533797
000090 81 9b 2d 3e b7 98 bf bd 0b 1d 0e 3e ed 35 20 be
       0.16953851 -0.093553 0.13878267 -0.15645571
0000a0 f8 83 b1 3d 18 60 1b be 58 00 04 3e 3e 29 2a 3c
       0.08667749 -0.15173376 0.12890756 0.0103858095
0000b0 26 38 02 be 64 fa 10 bd 1d cb 27 be e9 8f 11 be
       -0.12716731 -0.03539504 -0.16386075 -0.14215054
0000c0 25 fe f3 3d 4b ab 10 3e 61 f8 aa bd 97 5c fc 3d
       0.119137086 0.14127843 -0.08348156 0.123223476
0000d0 91 e6 0f be 3e 53 62 3e ce 84 ec bd 96 d9 e1 3d
       -0.14052798 0.22102067 -0.11548768 0.11027829
0000e0 50 24 6f bd 2b cb 83 3e 8c da bf bd f9 97 41 3e
       -0.05838424 0.25740942 -0.093678564 0.18905629
0000f0 89 5c 00 be ba 17 3e bd 0a 2c bd 3b e2 7f 17 bc
       -0.125353 -0.046409346 0.005773072 -0.009246798

mlp_extractor.policy_net.2.weight f4 [64, 64]
000000 d9 c0 86 3e 0c 61 74 3d e8 58 2c be 0a f3 a2 bd
       0.26319006 0.059662864 -0.1683079 -0.07956512
000010 94 9f 9b be 58 52 e3 3e e7 96 a4 3e ee 5a 6c 3c
       -0.30395186 0.4439876 0.3214638 0.014425976
000020 70 f5 35 be 58 5b a2 3e cb f9 30 be ef 99 69 bd
       -0.17769408 0.31710315 -0.17282788 -0.05703157
000030 5d 04 2d 3f 4e 8d ca bd 73 5d 17 bf 5d a3 3e be
       0.6758478 -0.09890233 -0.5912697 -0.18617006
000040 d6 0e b8 3e c3 df 75 be ae 87 c2 3d 1e 3e 31 be
       0.3594882 -0.2401114 0.09498535 -0.17308852
000050 bb 43 80 3e 9a f7 c7 bc 5c 6a ea 3d 26 9e 41 3e
       0.25051674 -0.024410058 0.11446068 0.18907985
000060 97 01 d1 3e 28 ce 32 3e 43 e9 95 bd 31 18 03 3e
       0.40821525 0.17461455 -0.07319882 0.12802197
000070 5c 88 96 3e 4c 47 d6 3d 48 01 46 be cf 91 4d be
       0.2940091 0.104628175 -0.19336426 -0.20075153
000080 d3 f9 6b be ac e6 87 3d a2 73 49 be f9 04 c5 bc
       -0.23044519 0.06635794 -0.19673017 -0.024050223
000090 f1 20 d7 be f5 fa 48 3e 7d 30 93 be 44 5a 82 be
       -0.4201732 0.19626983 -0.2874793 -0.25459492
0000a0 4f a2 98 3d 80 e8 9d 3e 33 81 3f be 92 d7 62 3e
       0.07452833 0.30841446 -0.1870163 0.22152546
0000b0 ce c0 e6 bd 70 8a c0 be ed 22 3e 3c 68 a6 06 be
       -0.11267243 -0.3760562 0.011605007 -0.13149416
0000c0 88 17 b0 3d b5 10 83 3e c6 e3 47 bd b6 57 d5 bd
       0.08598238 0.25598684 -0.048801206 -0.1041712
0000d0 79 19 17 be 45 06 85 be e1 87 83 bd 31 8d 6a be
       -0.14755811 -0.25981346 -0.06422401 -0.22905423
0000e0 d1 b6 e9 3c 01 09 85 be 10 86 46 3d 8d e2 e9 bd
       0.028529556 -0.25983432 0.048467696 -0.11420164
0000f0 d7 ba f1 3e d4 83 b7 3e bc 17 55 be 11 22 c1 be
       0.4721286 0.35842764 -0.20809835 -0.37721303
000100 a0 a5 ee be 58 61 f4 3d 68 6f 57 3e 13 69 28 be
       -0.46610737 0.11932629 0.21038592 -0.16446333
000110 bb 7d d9 be f4 62 d9 3e e6 81 e2 bd 6e a6 d7 3d
       -0.42478737 0.42458308 -0.110599324 0.10529791
000120 85 d8 07 bf 5c da 9f 3e a8 03 9e be 5d cb 8c 3e
       -0.5306476 0.31221282 -0.30862164 0.27498904
000130 d1 cd 24 3e 91 81 1f 3e ac eb 0e 3e 1c ce 92 be
       0.16094138 0.1557677 0.13957089 -0.28672874
000140 d1 0a 9d be 6a e4 75 3e 3b 8b 1e 3e 6c de a1 3e
       -0.30672315 0.24012914 0.154828 0.31615007
000150 98 a1 d0 3d 24 90 a6 3d 26 9d b2 3c 02 47 4b 3e
       0.101870716 0.081329614 0.02180345 0.19851306
000160 60 89 8c 3e 65 69 96 bd 59 8f cc 3d 66 72 50 3e
       0.2744856 -0.07344321 0.09988279 0.2035614
000170 35 99 50 3e 6f 84 d1 3d 19 3d d6 bd 2c c3 7f 3e
       0.20370944 0.10230338 -0.10460872 0.24976796
000180 f8 c4 23 3e ef 14 b4 3d 8f 56 4a bc 91 fb 2a 3e
       0.15993106 0.08793055 -0.012349739 0.16697527
000190 34 03 ed 3d dc cf db bb 23 81 37 be 37 e0 0c be
       0.115728766 -0.0067081284 -0.17920355 -0.13757406
0001a0 2e 01 5e be bc f9 11 3f 8b bb 71 be 6f 35 13 be
       -0.21680138 0.5702169 -0.23606698 -0.14375852
0001b0 7b 98 08 3d d4 7f 05 be 41 78 7c 3e 9c 04 7c 3e
       0.03334854 -0.13037044 0.24655248 0.24611133
0001c0 1c 58 78 bd 6f 2d 18 bd 0f 8f 19 bd d6 42 c8 be
       -0.060630903 -0.037152704 -0.037489947 -0.39113492
0001d0 15 02 5e be 15 18 e5 3b 93 2c 32 bd 1f 33 aa 3e
       -0.21680482 0.006991396 -0.04349954 0.33242127
0001e0 52 54 c8 39 2e 0c 31 be 26 9a 3a 3a b5 d2 a8 3d
       0.00038209796 -0.17289802 0.0007118307 0.08243314
0001f0 b5 43 6e bd 53 69 04 bd 6c 82 b8 3e 7b a2 b8 bd
       -0.05817004 -0.032327008 0.36037004 -0.09015366
000200 a1 21 95 be c8 a3 a3 3d a2 9d 24 be 92 1e a6 3c
       -0.2912722 0.07990223 -0.16075757 0.020278249
000210 3e 6f 9a bd 06 59 50 3e 4f 35 0f 3e 40 7a 00 be
       -0.07540749 0.2034646 0.1398518 -0.12546635
000220 3e bd b6 3e 61 a6 a4 bd e4 41 43 be f3 f1 87 3d
       0.35691255 -0.08039547 -0.19068104 0.06637945
000230 bd 67 f6 3d cb f4 67 be df b9 2e be 5e 4e 04 bc
       0.12031505 -0.22651975 -0.17063092 -0.008075325
000240 64 6e 60 be a8 d8 8b 3d d2 9b a0 3e c2 77 c9 be
       -0.2191711 0.06828433 0.3136888 -0.3934918
000250 53 76 88 3d 6a ba 0a be 4a 95 44 be 7f fe fd be
       0.066631936 -0.13547674 -0.19197574 -0.49608228
000260 f7 23 4a bd 8c ce 4b 3d 84 25 b4 bb 0f 02 a1 3e
       -0.049350705 0.049757525 -0.0054976363 0.31446883
000270 83 8b 01 3e d2 cb e2 3d 34 24 06 be 39 94 1c bf
       0.12650876 0.11074032 -0.13099748 -0.6116367
000280 49 3b 91 3e 51 65 8f bd cf 9e 92 bd 06 f3 2e 3d
       0.28365543 -0.070017464 -0.071591966 0.042712234
000290 52 ac e6 3d 5f 9e 22 3f c1 b8 9a 3e 14 74 56 be
       0.11263336 0.63522905 0.3021908 -0.20942718
0002a0 17 bd a8 be 51 7d 81 3e a5 98 95 be 3c c2 d1 be
       -0.32956764 0.2529092 -0.2921802 -0.40968502
0002b0 a0 54 f7 bd 91 5e 19 3d 96 f6 6d 3e 26 2d 4e 3e
       -0.12076688 0.0374437 0.23238596 0.2013441
0002c0 b6 8c fe bd e9 72 e6 bc 92 ee 28 bd 2d fb 0d 3d
       -0.12429182 -0.028130965 -0.041243143 0.034663368
0002d0 c6 3c 7c be 47 d0 f7 3e 3e 9e 07 3e 77 af f9 3d
       -0.24632558 0.4840109 0.13243958 0.121916704
0002e0 dd 6d ad 3e a3 9f 54 be 50 2e e2 bd 04 5d ff 3d
       0.33872882 -0.20764022 -0.1104399 0.12468913
0002f0 e5 f2 0f 3e 54 d9 10 3f bf 1a 91 3e d2 62 36 3e
       0.140575 0.56581616 0.28340718 0.17811134
000300 31 9e 7b 3e 58 d2 49 3c 64 43 07 3f 83 67 c9 bd
       0.24572064 0.012318216 0.52837205 -0.098341964
000310 f8 3d 80 be 12 b5 f6 3d 38 e9 79 bd 0c 79 af be
       -0.25047278 0.12046255 -0.06101343 -0.3427204
000320 b5 23 1a be 05 63 c2 3d e7 d1 d3 be 00 0f 14 be
       -0.15052684 0.09491543 -0.4137108 -0.14458847
000330 ac 82 f4 bd 14 84 c8 3c de e6 8a be 54 99 ab 3e
       -0.11938986 0.024477042 -0.27129263 0.33515418
000340 84 3e ab 3e 89 3f 52 be 05 a1 e7 bd ca 0f 7d 3e
       0.33446133 -0.20532049 -0.11310009 0.24713054
000350 2a 5b bc be 67 44 3f be 75 79 ca 3d a2 e6 a6 bd
       -0.36788303 -0.18678437 0.09886447 -0.081494585
000360 af b9 fc bd 1d 80 02 3e d3 6b 95 be 52 59 cc 3e
       -0.12340104 0.12744184 -0.29183826 0.39911896
000370 22 ac 3f bb de 15 a1 bd 59 05 c2 3e 86 24 1f be
       -0.0029246886 -0.07865499 0.37894705 -0.15541276
000380 15 78 ae 3c 40 7d cf 3e 6a e8 c1 be 63 0b a8 be
       0.021297494 0.40525246 -0.3787263 -0.32821187
000390 39 5a 01 3f df 93 de bc bb c4 04 3e 80 94 0f bd
       0.50528294 -0.02717012 0.12965672 -0.03505373
0003a0 4c 70 af bd 84 22 28 be 4b 2b 54 3e df fb a9 3d
       -0.08566341 -0.16419417 0.2071964 0.08299994
0003b0 93 92 12 3e 56 bf 5f 3e 37 39 8d bc 9d 50 f3 be
       0.14313726 0.21850333 -0.017239196 -0.4752244
0003c0 51 2d a1 be 0c 43 cc 3c 4c c5 bd 3d ec 09 ad 3e
       -0.31479886 0.024934314 0.09266147 0.33796632
0003d0 9a 4f 58 be 6e 9d ab bd 95 27 08 be e2 05 05 3e
       -0.21124116 -0.08379637 -0.1329635 0.12990525
0003e0 86 e9 6f bd 7e f3 9f 3e fd f9 66 bc 31 04 0c 3e
       -0.058572315 0.31240457 -0.014097688 0.13673474
0003f0 b6 c9 ea be ab 08 8e be ae 9c 2c be 4c a0 2d be
       -0.45857018 -0.27740988 -0.16856644 -0.1695568

mlp_extractor.policy_net.2.bias f4 [64]
000000 df 1f 49 be 49 83 88 be 7a 68 5f 3d ab bb 08 3f
       -0.19641064 -0.26662663 0.054542996 0.5341136
000010 cf c4 4e 3e d2 89 3b 3e c0 4d 1d be 1e c8 06 3e
       0.20192264 0.18314293 -0.1536169 0.13162276
000020 0e 85 aa bc 71 b5 9a 3e f6 e5 c2 3e 34 5b b9 3a
       -0.020815399 0.30216554 0.3806607 0.001414156
000030 5a 64 da 3e f8 e5 39 be 0b 14 8d bd 13 a5 a7 bc
       0.42654687 -0.18154132 -0.068885885 -0.020464456
000040 95 5e ad bd aa d6 f2 bb 7a 41 7a bd b8 aa 5e be
       -0.08465306 -0.007410844 -0.0610976 -0.21744812
000050 f7 70 8f 3c 5b ba 45 be d3 7a aa be bd 52 bf 3d
       0.01750992 -0.1930937 -0.33296832 0.09341953
000060 f3 1f ce be ca b5 e1 bc ff d8 8b 3d bc 76 fd be
       -0.4025875 -0.027552504 0.06828498 -0.4950465
000070 26 24 87 3d 1d 38 f2 bd 41 b3 de 3d f5 f3 d5 3e
       0.06598692 -0.11827109 0.10874034 0.41787687
000080 d6 a7 b4 be 22 78 98 3e c2 d0 65 be 77 d6 98 3d
       -0.352843 0.29779154 -0.22442916 0.07462781
000090 a1 d0 b4 3e 83 29 80 3e 50 f9 0b 3d 2a 10 27 3e
       0.3531542 0.2503167 0.03417331 0.1631476
0000a0 d7 22 1f be 2d 78 11 3f 8f 63 ea 3c 17 2a 32 3e
       -0.15540634 0.56824 0.028611926 0.17398869
0000b0 68 3e 76 3e 16 14 89 bd f5 98 90 bd 4e 99 e0 bd
       0.24047244 -0.06693284 -0.07060424 -0.109667405
0000c0 c1 54 1f 3c e0 f9 bd bd 4b 52 47 be 03 31 98 3c
       0.009724797 -0.092761755 -0.19464986 0.018578058
0000d0 e1 fb a4 3e 04 ac 97 3e 39 95 3d 3f f6 88 6a be
       0.32223418 0.29623425 0.7405582 -0.22903809
0000e0 63 19 95 3d a9 39 91 3e 11 ff e9 3e 9b c1 01 3e
       0.07280233 0.28364304 0.45702413 0.12671511
0000f0 05 7d 16 bd dd f7 95 3d 28 4f ff 3d bc d0 15 be
       -0.03674032 0.07322667 0.1246627 -0.14630407

mlp_extractor.value_net.0.weight f4 [64, 115]
000000 29 0f f6 be c2 b1 74 bf 3e 49 d0 3d 0c 10 3a 3f
       -0.4805844 -0.95583737 0.1017022 0.72680736
000010 f6 6f ba be a3 9f a7 ba e8 22 a8 bb 91 69 0f bf
       -0.36413544 -0.0012788664 -0.0051311143 -0.56020457
000020 90 26 00 3f 2d 77 ac be de 36 f5 3e ab d8 36 3f
       0.5005884 -0.33684674 0.47893423 0.7142436
000030 39 0d 09 bf b6 bc 83 3e b4 20 2c 3e 6f e0 3a bf
       -0.535358 0.25729913 0.1680935 -0.7299871
000040 86 76 56 3e 7c 39 cb 3d 9b f8 8e be b5 6c c5 3e
       0.2094365 0.09923074 -0.27924046 0.385595
000050 80 f0 87 bf 53 44 a7 be b7 c6 85 3e 4c ce 0e 3e
       -1.062027 -0.32669315 0.2612817 0.13945884
000060 70 51 f2 bd 66 e6 2f 3e 34 f5 f4 3d 88 a1 08 be
       -0.11831939 0.17177734 0.11960831 -0.1334287
000070 fa 09 90 be ed 0e ee 3d fb 06 bd 3d 1a 49 dc 3d
       -0.28132612 0.116239406 0.09229847 0.107561305
000080 5a e4 f0 3d fd e3 8f 3d b3 f0 e0 3d 20 c8 b9 bc
       0.117623046 0.07025907 0.1098341 -0.022678435
000090 b7 f1 5a be 2a 84 2c be b4 f9 bc 3d 7f c1 ea bd
       -0.2138127 -0.16847292 0.092273146 -0.11462688
0000a0 20 b5 85 be 83 0e 03 3e f5 87 ff 3e 0c 76 29 be
       -0.2611475 0.12798505 0.49908414 -0.16548938
0000b0 8c ff d8 3c ed 72 63 3d 64 6b 42 3c 21 9b 87 3e
       0.026489042 0.055529524 0.011866424 0.2648554
0000c0 93 10 62 39 fa 4d f3 3d a1 0d 82 be d5 87 1b 3e
       0.00021559214 0.11880107 -0.25401023 0.15188535
0000d0 0a 88 76 be 72 30 7f be 5f 1b ce 3d 02 84 04 bf
       -0.24075332 -0.24920824 0.10063814 -0.5176393
0000e0 d7 45 9b 3e d6 73 11 be e2 46 bf 3e 98 b6 63 be
       0.3032672 -0.14204344 0.37358767 -0.22237623
0000f0 58 c4 c7 3d 66 e0 a1 be 1e 3e 1e 3e 2a e4 84 3e
       0.097542465 -0.31616515 0.15453383 0.25955325
000100 bb a4 ab be 3d 3f 06 be 05 94 98 3c a5 2b 7a 3d
       -0.33524117 -0.13110061 0.018625269 0.06107678
000110 b0 f7 6b be a1 0d 27 3d ce 93 4c bd 56 f5 80 bd
       -0.23043704 0.040784482 -0.049945645 -0.06296794
000120 bb f0 d7 be df 8a ea bd 99 16 69 3d 2a 8f d5 3d
       -0.4217585 -0.11452269 0.056906316 0.10427697
000130 f0 fc 29 3e d5 21 80 3e 5d c3 f2 3e 62 29 bf bd
       0.16600394 0.25025812 0.47414675 -0.09334065
000140 c3 2d 09 3e 83 1e 20 be 0b f7 50 be 6b b4 64 3d
       0.13396363 -0.1563664 -0.2040674 0.055836122
000150 d7 51 25 be 48 0d 01 3e 2d d9 5b be 8e f1 0c 3f
       -0.161445 0.12602723 -0.21469565 0.55056083
000160 41 a3 c0 3e d3 9c fc bd 23 a2 ea 3e 9d 57 07 3e
       0.37624553 -0.12334599 0.45826825 0.13217016
000170 01 27 c4 3e 28 fc f3 be c5 3e 27 3e 2c fc a5 3e
       0.38311008 -0.47653317 0.16332538 0.32418954
000180 0d 65 15 3f f3 3b a9 3d 51 70 a5 bd e3 43 97 bd
       0.58357316 0.082633875 -0.08078063 -0.07385995
000190 5d 12 81 be 5f dd 6a be e5 e6 15 3e 37 64 db 3e
       -0.25209323 -0.22936009 0.1463886 0.42849895
0001a0 77 d1 02 3e 1f a8 11 be d9 65 d2 bc 74 d6 cf 3e
       0.12775217 -0.1422429 -0.02568333 0.40593302
0001b0 c7 13 bc bd a9 07 4e 3e ae a0 e3 3d 37 98 68 3e
       -0.0918346 0.2012011 0.111146316 0.22714315
0001c0 0b 8c f1 be 6b f8 3c bd 13 09 b0 3e 5a 3c b6 3c
       -0.47177157 -0.046135347 0.34381923 0.022245575
0001d0 77 e7 bf be 38 1b 2a 3f 81 72 2e 3f 3b 0f 99 bf
       -0.3748128 0.6644778 0.6814347 -1.1957773
0001e0 47 46 1f c0 cb a8 90 3f f8 ba bd be 16 bd 42 be
       -2.4886644 1.1301512 -0.37056708 -0.19017443
0001f0 af 53 37 bc 51 00 df bd 2c b2 95 bd 0d f8 eb bd
       -0.011189385 -0.10888732 -0.07309374 -0.11521921
000200 fe a8 35 be 9b ac 8b be 22 44 ce 3d 5f 8e 20 be
       -0.17740247 -0.27280125 0.10071589 -0.1567931
000210 4f a8 dc be 96 7f 30 3e 73 b9 31 3f 84 ae 40 bf
       -0.4309716 0.1723617 0.694236 -0.7526629
000220 f1 80 93 3e d9 4c 1b be c8 46 31 be 05 50 c5 3d
       0.28809312 -0.15166034 -0.17312157 0.09634403
000230 ea f6 46 bd fb 95 81 bb d2 29 82 3c cb 0b 27 b9
       -0.04857532 -0.0039546466 0.015889082 -0.00015930754
000240 d7 43 c5 bc 8e 94 11 bc 43 a8 97 bc ef 06 2e bc
       -0.0240802 -0.008885516 -0.01851285 -0.01062177
000250 c0 c8 4c 3c 9c 8a cd bc b6 53 6a bc c3 c3 0e 3c
       0.012499034 -0.025090508 -0.014302185 0.008713665
000260 2a 85 45 3d d4 ab 43 3e 11 28 be 3d d1 85 9d 3d
       0.0482227 0.19108516 0.09284986 0.07691539
000270 33 d0 3c bd 02 a0 5d be 35 1c d4 3c f6 44 58 3e
       -0.04609699 -0.2164307 0.025892356 0.21120057
000280 35 ca d7 3c cd 11 1e bc 38 f3 ad bd dd d4 2b bc
       0.026341537 -0.009647799 -0.08493656 -0.010487762
000290 22 00 6c 3e fd 65 11 be 75 bc 2d be 52 1a 9c 3d
       0.23046926 -0.14199062 -0.16966422 0.07622208
0002a0 f1 22 3e bd 87 3e 14 be a5 4d 3f be d8 39 9c 3d
       -0.04642004 -0.14476977 -0.18681963 0.0762822
0002b0 bb 12 9d 3d 0f 08 83 3d ba 58 47 ba a2 ef 9b bd
       0.07669588 0.063980214 -0.0007604469 -0.07614066
0002c0 db 3f 99 3d f8 b6 51 bd 4b 88 92 bd b2 7c 0a 3e
       0.074828826 -0.051199883 -0.07154902 0.1352413
0002d0 35 45 df bd 43 d4 51 be 39 ce 1c 3e 48 c4 98 bd
       -0.10901872 -0.20491128 0.15313043 -0.07459313
0002e0 c0 53 93 be 49 f6 47 bd 12 e9 a4 3c 8b fb 56 3d
       -0.28774834 -0.04881886 0.020130668 0.052485984
0002f0 84 e8 18 bc 06 a1 61 bd 7b 6b 02 3c 68 3a b6 bc
       -0.00933278 -0.055085205 0.007960196 -0.022244647
000300 74 40 8c 3d 4b 61 6a be af d4 1a be 54 d6 71 be
       0.06848231 -0.22888677 -0.15120195 -0.23616916
000310 94 18 ab bc 81 90 9b 3e bb f8 2f be 2f b9 83 3e
       -0.020885743 0.30383685 -0.17184727 0.2572722
000320 08 87 12 bd d0 e9 f2 bd 32 ca a4 3d 8c 4a fa bd
       -0.035773307 -0.118610024 0.08046378 -0.1222125
000330 c3 fc dc bd 28 32 a0 3e af f3 a7 bc 23 56 63 bb
       -0.10790398 0.31288266 -0.02050194 -0.0034688793
000340 34 cb b6 3d 2d 3f e8 3c 54 c1 e7 bc ed 73 b2 bd
       0.08925477 0.028350437 -0.028290428 -0.08713517
000350 72 35 f1 3d b4 57 66 bd db fe 56 3d 26 92 20 3d
       0.11777772 -0.056235984 0.052489143 0.039201878
000360 c0 2f 92 3d d8 5b ab 3e 07 f6 c8 bc 1c 26 d5 bd
       0.07138014 0.3346851 -0.024531377 -0.104076594
000370 70 d2 ba bd 1b 21 2a 3d c1 ef d5 3d 5c 9d 27 3f
       -0.09122169 0.041535478 0.1044612 0.65474486
000380 7d dc 0e 3e d5 20 9c bd 09 27 f1 bb 44 e1 6b be
       0.13951297 -0.0762345 -0.0073593897 -0.23035151
000390 3b 1b 38 bd ae d3 b5 3b 16 60 69 3e 5b ce 1c 3f
       -0.044947844 0.005548916 0.2279056 0.61252373
0003a0 42 1f ba bd b4 80 a7 be ed 21 56 3e d8 47 08 bf
       -0.09087993 -0.3271538 0.20911379 -0.53234625
0003b0 84 74 b8 39 7e 46 ce bd f3 29 3d be dd 8a 75 bc
       0.00035182026 -0.10072039 -0.18473034 -0.014986721
0003c0 9e 92 2e bc 44 3a 51 bc 14 95 9a bc bf 11 ac 3e
       -0.010655073 -0.012770239 -0.018869914 0.3360729
0003d0 5d 3a 5d be 7e ec 86 3d c7 61 e2 bd 0a 10 18 3f
       -0.21604295 0.06588076 -0.11053806 0.59399474
0003e0 d5 d0 57 bd b5 3a b4 bf f6 b0 e3 3e 13 21 dd 3e
       -0.052689392 -1.4080416 0.44470948 0.43189296
0003f0 72 53 f0 3d 66 d9 cc 3d 22 40 de 3e 18 a7 20 3e
       0.11734666 0.10002403 0.43408304 0.15688741

mlp_extractor.value_net.0.bias f4 [64]
000000 61 10 59 3e 86 fa 80 be 26 0d a6 3d ac 87 f5 bd
       0.21197654 -0.25191134 0.081079766 -0.11988768
000010 a3 2b 07 3d 9c 6e 0f 3e 8f c4 5d 3e 02 3f 4a bf
       0.0330006 0.14007038 0.21657012 -0.7900239
000020 ae cf 42 be 6c 9f 62 3e ea 60 b6 be 34 8e 2b 3e
       -0.19024536 0.22131127 -0.35620815 0.16753465
000030 6e 1f 8c 3e e5 63 01 bf de 35 9b 3e 48 0a a1 3e
       0.2736773 -0.5054305 0.30314535 0.31453156
000040 07 5f 81 be e0 f0 f1 be 46 25 10 be 30 85 3b 3e
       -0.25267813 -0.47254086 -0.14076719 0.18312526
000050 12 ed e9 3d 37 eb e9 be 03 c4 d5 3e 9f 97 a3 be
       0.11422171 -0.45687267 0.41751108 -0.31951615
000060 a3 18 52 3e 44 1e 71 be aa cd dd be 28 0d 51 3e
       0.2051721 -0.23546702 -0.43320972 0.20415175
000070 44 d7 db be f3 fa 94 3e e0 70 fd be 74 02 74 be
       -0.42937672 0.2909771 -0.4950018 -0.23829061
000080 fa e7 2d bf fc cf 03 bf 10 01 bc be 3d f0 2c 3e
       -0.67932093 -0.51489234 -0.3671956 0.16888519
000090 f9 0c 60 3e be 02 ca be 54 79 0d bf 1c 57 36 3f
       0.21879949 -0.39455217 -0.5526326 0.7122667
0000a0 27 11 3b bf 53 42 cf be a1 36 de be 15 19 0e 3e
       -0.7307305 -0.4048029 -0.43401054 0.13876756
0000b0 86 b8 9d 3d 61 3e 5c bf 04 91 50 3e 38 f5 4d 3d
       0.07701211 -0.8603268 0.20367819 0.050282687
0000c0 74 d3 b1 be 3c 77 ec 3e ce 1b de be 77 a2 17 3f
       -0.34731638 0.4618472 -0.43380588 0.59232277
0000d0 ed 4c 26 be b8 25 a5 be 88 63 c4 3e 7b 56 04 3f
       -0.16240282 -0.3225534 0.38357186 0.5169446
0000e0 a4 04 3f bf 23 40 e5 be fa e8 00 3e 6d 6d 2e bf
       -0.74616456 -0.44775495 0.12588874 -0.6813572
0000f0 04 f9 09 3f d2 de 61 3f 97 eb 04 bf 38 ce 99 bd
       0.5389559 0.8823062 -0.5192198 -0.07510036

mlp_extractor.value_net.2.weight f4 [64, 64]
000000 15 5a 3f be f7 85 b8 3d b7 e2 98 bd e8 27 96 3e
       -0.18686707 0.09009927 -0.074651174 0.2932732
000010 f9 dc d6 be 39 ec 75 bc 7f c0 17 bf 37 97 81 3e
       -0.41965464 -0.015009933 -0.592781 0.2531068
000020 66 ae 66 3b 1d 75 8c bc b7 a1 a4 3d 5e 74 b5 3c
       0.0035199164 -0.017145688 0.08038657 0.022150215
000030 c1 33 8f be 0d 16 88 bd ce eb 06 be de 99 fd bd
       -0.27969173 -0.06644831 -0.1317589 -0.123828635
000040 f2 23 41 be b6 16 cf 3d c6 2d 08 be 99 49 14 bd
       -0.18861368 0.10111754 -0.13298711 -0.036203
000050 36 a2 e5 bb f5 d4 36 be 03 68 b0 be 2f c1 98 3e
       -0.0070078624 -0.17854674 -0.34454355 0.29834887
000060 8c 0c 38 bc 23 55 0f 3f 09 26 9b bd 2d 20 45 be
       -0.01123346 0.55989283 -0.07575614 -0.19250555
000070 29 01 2f b9 6e 11 02 bb bf 99 91 bd 77 a9 9d 3c
       -0.00016689733 -0.0019846815 -0.07109403 0.019245846
000080 eb 78 31 bd 39 32 e6 3c d7 4a 53 bf fd 16 83 bd
       -0.043328207 0.02810012 -0.8253607 -0.06400869
000090 c1 38 4a bd 21 2c 51 be c3 71 bf 3e a3 1a 76 be
       -0.04937053 -0.2042699 0.3739148 -0.24033599
0000a0 ce d0 ab 3d 50 a1 17 3e 84 fd de 3e 35 98 48 be
       0.08389436 0.1480763 0.43552792 -0.19589312
0000b0 59 50 47 3e 41 71 0c 3e 80 9b d4 bd c6 63 38 3d
       0.19464244 0.13715078 -0.10381222 0.045017026
0000c0 96 64 a6 3e a5 95 e8 3e ce 85 61 3d e8 9b ff bd
       0.32498616 0.4542667 0.055059247 -0.12480909
0000d0 16 e7 49 be 92 ef cb 3e a3 22 15 bf 9c 4b b1 bd
       -0.19717059 0.39831215 -0.58255976 -0.086569995
0000e0 99 d6 0c 3f 8b bf 9c bc 05 ce 94 be 30 cd 0b 3f
       0.5501495 -0.019134304 -0.2906343 0.54609966
0000f0 09 0c 8f 3d e0 6f 59 bf 2f 82 47 3e 7f 51 05 3d
       0.069847174 -0.8493633 0.19483255 0.032548424
000100 30 64 73 3e 72 f5 a4 3e a2 a1 22 be 6e 34 24 3d
       0.23768687 0.3221851 -0.1588197 0.040089063
000110 3c a3 6a 3e 10 8c bb 3d 8c 19 1b be 8c f9 3a be
       0.22913831 0.09157574 -0.15146464 -0.18259257
000120 08 8f c7 bd cf e3 ec 3d 4f c6 03 be 12 4d 28 be
       -0.09744078 0.115668885 -0.12868617 -0.1643565
000130 c9 80 08 be 8a 59 b7 3e e6 2e 85 3e e4 9c 0e bd
       -0.13330378 0.358105 0.26012343 -0.03481759
000140 84 d7 e7 3d 29 c8 b6 be 61 0a f9 be 69 c5 ec 3d
       0.11320403 -0.35699585 -0.4864073 0.115610905
000150 aa a8 88 3d 36 2c 00 3e 6b 31 21 be 3d f2 9d 3c
       0.06672795 0.12516865 -0.15741508 0.019280547
000160 53 a4 38 bd 9a c7 be 3e c0 77 91 3e a8 a6 48 3e
       -0.045078587 0.3726166 0.28411674 0.19594824
000170 df 86 a7 bd 07 53 1c bd b4 79 3b be 34 35 d7 bc
       -0.081800215 -0.03816512 -0.18308145 -0.026270486
000180 cc f2 a4 3e bd b5 80 be ef 32 2b be 3c 35 fc be
       0.3221649 -0.25138655 -0.16718648 -0.49259365
000190 0a 71 d3 3e 56 26 ce be 32 19 7d 3e 53 e7 c8 3e
       0.4129718 -0.40263623 0.24716642 0.39238986
0001a0 b5 f8 db bd b8 c5 c4 bd 8c a3 8d 3d b5 4f b0 3d
       -0.107407965 -0.09608024 0.0691596 0.08608953
0001b0 ab 79 81 3e b5 21 e8 3d 8f e9 29 3e 1f 6c fc be
       0.25288138 0.11334554 0.16593002 -0.4930124
0001c0 d7 d5 d7 be 5c 7f 0b 3f c4 6f c6 bd e0 a1 14 be
       -0.42155334 0.5449121 -0.09689286 -0.14514875
0001d0 5f 9c 4e 3e 4d bf a5 3e 5a 9b 35 3f a6 03 aa 3e
       0.20176838 0.32372513 0.7094017 0.3320591
0001e0 d4 dd 80 be 1a 00 83 3e 01 29 02 3f 33 49 13 be
       -0.2516924 0.25586015 0.50843817 -0.14383392
0001f0 c6 ac bd be df 21 05 be cd f0 8b 3e 58 fb e9 be
       -0.37045878 -0.13001202 0.27332154 -0.45699573
000200 85 17 fa bd 1a 99 ba be a1 19 48 3d b1 df e4 bd
       -0.12211517 -0.36444932 0.048852567 -0.11175478
000210 e8 06 79 be 85 20 76 3d d4 c4 d3 3e 27 4e f7 3e
       -0.24319041 0.060089607 0.41361105 0.48301813
000220 56 6a 30 3d 21 11 05 bf 0e 16 33 3b d9 0d df be
       0.04307016 -0.5197926 0.0027326378 -0.43565252
000230 ff 9b be be 66 32 bd 3e e1 af b5 3e d0 77 35 3e
       -0.3722839 0.36952513 0.35485747 0.17721486
000240 90 50 cf 3d 84 f7 e8 3d 2e 71 e8 3e 65 cd 92 3e
       0.10122788 0.11375335 0.4539885 0.2867233
000250 74 33 6b 3e e1 29 8f 3e 10 27 da bd d2 2e 4b bd
       0.22968847 0.2796164 -0.10651982 -0.0496052
000260 88 e1 50 be 3d 1c 02 be a5 90 32 3f 10 2d 25 3d
       -0.20398533 -0.12706085 0.6975196 0.040326178
000270 59 e5 df bd f9 28 e9 bd 84 1f 33 3f a1 b7 a9 3e
       -0.109324165 -0.11384768 0.69969964 0.3314791
000280 01 29 46 3e f0 25 96 3e 46 b7 24 bd 3f 11 39 bf
       0.19351579 0.2932582 -0.040213846 -0.7229194
000290 fd 39 50 bd ef 25 5d 3d 4e 50 c2 be 64 c8 fb be
       -0.050836552 0.053991254 -0.37951893 -0.49176323
0002a0 78 2a 12 3d ca ab 92 bd 05 98 81 be de 93 be 3e
       0.035685033 -0.071616724 -0.25311294 0.3722219
0002b0 dd ec af be df 61 01 3f 8a b2 80 3e 6b d9 02 bc
       -0.343604 0.50539964 0.25136214 -0.007986407
0002c0 99 7f 65 3e bd fa d3 bd 6b 2f fd 3d 0e d7 d1 bc
       0.22411956 -0.10350559 0.1236256 -0.025615241
0002d0 23 64 6d 3e d1 dc 1b bf 9e 7a 45 3c 2a fd 2c 3d
       0.2318273 -0.60883814 0.01205316 0.042233624
0002e0 5b f7 67 3d 8c 38 79 be 89 c2 2d be 8a 3e 84 3e
       0.05663238 -0.24337977 -0.1696874 0.25828964
0002f0 0b 38 8c be d3 7f 41 3e 65 09 1e be b6 46 31 3d
       -0.27386507 0.18896417 -0.15433271 0.043280326
000300 a9 7f 94 bd d8 90 04 bf dd 06 59 3d 6e 43 bb be
       -0.07250912 -0.51783514 0.05298506 -0.36574882
000310 fe 88 b7 3c 6b cd 20 3f 26 d2 ee 3e 08 e9 07 3e
       0.02240419 0.6281344 0.46644706 0.13272488
000320 fb 7b 42 3e b5 67 3c bc 01 b2 21 bf 28 e0 11 bf
       0.18992607 -0.011499335 -0.6316224 -0.5698266
000330 24 43 2a 3c 13 b9 f9 be 18 84 cf 3e 6d ae c5 bb
       0.010391984 -0.48774013 0.40530467 -0.006032756
000340 2d 5d 29 bf 40 df 60 3d 51 a8 94 be 77 df 1b be
       -0.661578 0.054900408 -0.29034665 -0.15221964
000350 3f 81 68 3e 8b 24 1d bd 08 71 40 bd 07 6f 12 3e
       0.22705553 -0.03836493 -0.046982795 0.14300166
000360 af 88 df 3d d4 52 8a be d8 d0 5d 3e f3 c7 9e be
       0.10914742 -0.27016318 0.21661699 -0.31011924
000370 67 d1 ad 3e df 05 ab bd ed eb 84 be 62 9d 5d be
       0.33948824 -0.08350729 -0.25961247 -0.21642068
000380 b7 ad 6e be ab f8 6e 3b c5 15 83 3d 3b cc 36 bf
       -0.23308454 0.0036464136 0.064006366 -0.7140538
000390 eb 1f 40 bc 70 dd be be 4b 4f 87 bf 9e 41 3e 3e
       -0.01172636 -0.37278318 -1.0571073 0.18579718
0003a0 43 72 51 bc ca aa b7 bd 2a be 2b be e4 a3 11 3f
       -0.01278359 -0.08968122 -0.1677176 0.568907
0003b0 be 6d 8d 3e dd cc eb bd 69 c4 8e 3c 12 02 2b 3e
       0.2762279 -0.11513684 0.01742764 0.16700009
0003c0 1a 03 2a be 7c 6e 66 be 2e 66 62 be e9 9b 3c 3c
       -0.16602746 -0.22503084 -0.22109291 0.011511781
0003d0 89 71 bb 3c 8b dd 07 bf 3a 10 3c be a8 e6 ba 3e
       0.022881286 -0.5307242 -0.18365565 0.36504102
0003e0 fb 68 24 be 26 6c 12 be 2d 15 a6 be 44 5c 15 3d
       -0.16055672 -0.14299068 -0.3243803 0.036464944
0003f0 a1 03 01 3e ef 9e 04 3f 9f f7 05 3e a1 3b c9 be
       0.1259904 0.51805013 0.13082741 -0.39303306

mlp_extractor.value_net.2.bias f4 [64]
000000 90 27 80 bd 3f 72 26 be 01 86 c2 be 27 2a 3a 3c
       -0.06257546 -0.16254519 -0.37992862 0.011362589
000010 bb b7 0e be 9a 78 ef 3d aa ea 86 be 55 8c 57 bd
       -0.13937275 0.11692925 -0.2635091 -0.052624065
000020 98 9f 0c 3e 8d 71 a0 3d ca 15 ac bc e5 b5 96 3d
       0.13732755 0.07834158 -0.021006484 0.073589124
000030 a0 b1 35 be 53 7d 42 3d f8 7f 33 be b6 2b 87 3d
       -0.1774354 0.0474828 -0.17529285 0.06600134
000040 af 82 71 be 0e af 4e 3e 72 ca db bd 56 45 28 3e
       -0.23585008 0.20183966 -0.10731973 0.164327
000050 4b b6 90 3d df 3f 26 3e 54 38 c5 3d c4 13 2d 3e
       0.070660196 0.16235302 0.09629884 0.16902071
000060 2c 0f 1a 3e 99 99 ce bd ad f4 90 3e 21 95 ae 3d
       0.1504485 -0.1008789 0.28311673 0.08524538
000070 67 a1 13 3d 1a 1c 22 3e 7c 7e 51 3e 15 53 90 3d
       0.036042597 0.15831032 0.20458406 0.07047097
000080 db 3b a6 3d 47 22 75 be 96 07 25 3c 0b 7d 41 3e
       0.08116885 -0.23938857 0.010072609 0.18895356
000090 5b 32 11 bd c5 58 aa bd ea 29 9f be 4b 00 4a bc
       -0.035448413 -0.08317713 -0.31086665 -0.012329171
0000a0 68 8f f2 bd 47 4e 81 3e af b1 3d bd 10 cc e9 3c
       -0.11843759 0.25255033 -0.04631203 0.028539687
0000b0 0b c4 5c bd 79 ff b8 bd 70 1f 5c 3e d9 40 b4 3e
       -0.0538979 -0.090331025 0.21496367 0.35205725
0000c0 2c 5c b3 3d b1 bd 69 be 68 be 57 3d 08 93 fb bd
       0.08757815 -0.22826268 0.05267182 -0.12283903
0000d0 6f 9b 5d be 5c ba 87 3e db 10 3e be f7 12 a9 39
       -0.21641324 0.26509368 -0.18561117 0.00032248322
0000e0 8c 44 4d be 47 ae 0c 3e 8a 57 b4 bd 7e 3c 6f be
       -0.2004568 0.13738357 -0.08805759 -0.2336292
0000f0 93 ea 62 3e b6 db 00 bf 3c 25 07 3d 56 ad 83 3e
       0.22159795 -0.5033525 0.032994494 0.25718182

action_net.weight f4 [12, 64]
000000 a2 c0 f3 ba 7a 77 38 3e 8e 38 40 3e bd 24 c4 be
       -0.0018596838 0.18014327 0.18771574 -0.3830928
000010 ee b8 cb bd 70 42 ce bd 9c 70 44 3c 9b 01 48 bc
       -0.09947382 -0.10071266 0.011989739 -0.012207414
000020 5d 6a 65 be d2 e3 dc bd 87 87 7b be 13 83 af bd
       -0.22403856 -0.10785641 -0.24563418 -0.08569922
000030 6f d8 7b bd 13 57 e3 bd 69 f7 97 3d 15 b1 62 3e
       -0.061485704 -0.111005925 0.074202366 0.22137864
000040 01 52 a8 3e da 18 c6 3d 2e 95 f8 bc eb c6 a3 bb
       0.32875064 0.09672709 -0.030344572 -0.004998078
000050 99 c6 7f 3e b3 b6 f4 3d 13 67 d9 3d e3 06 16 be
       0.24978103 0.119489096 0.10615363 -0.14651065
000060 dc fa 9a 3e 71 dd d9 3b 79 f1 31 bd 71 6d b5 3e
       0.30269516 0.0066487123 -0.043443177 0.3543506
000070 4f c9 79 be 4c ab e4 bc 76 cf 8c 3c 77 88 67 be
       -0.243932 -0.027913712 0.017188769 -0.22610651
000080 71 44 da bd e6 b9 d6 be 8e 1d 92 3e a4 25 4d be
       -0.106575854 -0.41938704 0.28538173 -0.2003389
000090 85 15 ed bd 4b f4 4f 3e d3 12 3e be f7 08 42 be
       -0.1157637 0.20308034 -0.18561868 -0.18948732
0000a0 14 9f bb 3e 09 d7 ce bd 7a 89 9b bd 76 bb 23 3e
       0.36644804 -0.100996085 -0.07594581 0.1598948
0000b0 24 50 2b be aa 09 fe 3d 96 f9 6c be f7 e6 cd bd
       -0.1672979 0.12404187 -0.23142084 -0.10053819
0000c0 ef 14 bb 3e e2 e6 67 be 5d dd 14 3e 96 ce 82 3d
       0.3653941 -0.22646669 0.14537568 0.063870594
0000d0 25 71 a3 be 86 59 8e be 01 45 c7 be 3e b7 49 3d
       -0.3192226 -0.27802676 -0.38919833 0.04924702
0000e0 c2 23 1f 3c cd 3b fd bc ca 44 dc bd 02 8e 00 be
       0.009713115 -0.030912304 -0.10755308 -0.12554172
0000f0 44 ad 87 be 7d 16 66 3e b6 aa e1 bc 35 aa 26 3e
       -0.2649938 0.22469516 -0.027547222 0.16275866
000100 0d c8 a8 3d d5 fd b2 bc af 2e 3a 3d eb e5 fd 3d
       0.08241282 -0.021849552 0.045454677 0.12397369
000110 d6 fc ac 3d f8 8a e0 3d b6 92 da bd be a6 1b bc
       0.08446662 0.10964006 -0.10672514 -0.009500204
000120 ae a6 3c bd 99 b1 14 bd 4e 55 aa 3c aa cb b2 bd
       -0.046057396 -0.036302183 0.02079263 -0.08730252
000130 3e 41 ff 3d 31 2a 66 3d e2 50 46 bd 16 30 22 bd
       0.12463616 0.05619258 -0.04841698 -0.03959664
000140 b5 26 61 3e e1 e5 06 be 03 3a 12 be 27 69 05 be
       0.21987422 -0.1317363 -0.14279942 -0.13028394
000150 b5 7c 62 bd f4 dd 17 bd 35 9c 87 3c da 11 fb bd
       -0.05529471 -0.037076905 0.016553978 -0.12259264
000160 d5 78 5c 3d 99 d6 35 3e 5a d1 6e 3e f5 bc 8b be
       0.053826172 0.17757644 0.23322049 -0.272926
000170 bf 3a f4 3d 82 55 2b 3e 71 41 01 3e de d1 0f 3e
       0.119252674 0.16731837 0.1262262 0.14044902
000180 c9 2d 74 be 9a 6b 49 bd 18 92 a3 3c 34 e2 9e be
       -0.2384559 -0.049174882 0.019967124 -0.31031954
000190 2f 97 8f 3e 99 4b a9 be a0 a4 83 bd 2f 01 2c bd
       0.2804503 -0.3306549 -0.06427884 -0.041993316
0001a0 d3 ed 57 3e 1f 24 a2 3d 35 1d 08 3e fe 5c d3 3d
       0.21086816 0.07917046 0.13292392 0.10320471
0001b0 f8 3c 1a 3d 75 1b e2 bd 26 12 f9 3c d4 08 e6 bd
       0.0376558 -0.11040393 0.030404162 -0.112321526
0001c0 59 00 79 3e 58 ba 4e be 4a b8 be bd 8b 60 08 bd
       0.24316539 -0.20188272 -0.09312494 -0.033295196
0001d0 8d 04 05 3e d2 b3 f4 bd 1f ff d2 3d 13 f4 73 bd
       0.12990017 -0.119483605 0.10302567 -0.05955894
0001e0 e1 70 e7 3c 4c 7a b9 3e 89 d7 f5 3d f2 2b 43 3e
       0.028252067 0.36226118 0.12004001 0.19059733
0001f0 37 66 fc 3b d7 06 f0 bd 81 c1 02 bd 71 cc 82 bd
       0.0077026146 -0.117200546 -0.03192282 -0.0638665
000200 a9 4d 99 be 26 2e 8b 3c bd 63 d4 3d 25 2a 1a 3e
       -0.29942062 0.016989779 0.10370586 0.1505514
000210 a7 12 80 3e 3f 33 31 3d e9 f6 8d 3b b3 0b 7c 3e
       0.2501423 0.043261763 0.0043324125 0.24613838
000220 f9 a5 19 be 25 9a f6 bd d9 07 a2 3d 22 d9 c6 3d
       -0.1500472 -0.120411195 0.07911653 0.097093835
000230 8f 40 8d 3d f4 2c 32 3d 2f 2a 48 bd 31 09 38 3e
       0.06897079 0.043499902 -0.048868354 0.17972256
000240 04 e4 f2 3c 0c d8 1e be 48 4f 27 3d 45 10 07 be
       0.029649742 -0.15512103 0.040847093 -0.131898
000250 f2 03 19 3e 97 3f 6e 3d 75 e6 3d be 28 48 a8 bd
       0.14942911 0.058166113 -0.18544944 -0.08216888
000260 7b 79 0d be a4 a3 7d 3d 14 79 20 be 65 21 80 be
       -0.13815872 0.061923638 -0.15671188 -0.25025478
000270 f1 41 1b be 35 49 fa 3c 96 29 b3 3e 41 bc 48 3e
       -0.15161873 0.030552486 0.34992665 0.19603063
000280 44 0b 1a be 72 3f ba bd 71 44 83 be b0 c9 db 3d
       -0.1504336 -0.090941325 -0.25638154 0.10731828
000290 9f d6 28 3e b9 53 b9 3e 70 ae 8f bb f4 43 a8 3d
       0.16488121 0.36196688 -0.0043848082 0.08216086
0002a0 36 1d fd 3d 78 c0 e7 ba 51 fe a8 3d 6c f8 b2 3e
       0.12359087 -0.0017681262 0.08251632 0.34955156
0002b0 31 38 4d 3e 79 3a e3 bc 31 e2 87 bd db f1 89 3d
       0.20040967 -0.027737843 -0.066349395 0.067355834
0002c0 18 ea 43 be 70 64 8a be 86 1c 0b bd d7 a7 ec 3d
       -0.19132268 -0.27029753 -0.03396275 0.115554504
0002d0 72 9a 6a 3e cd ef 77 3e e5 00 cf 3e 24 ea 37 3d
       0.22910479 0.2421257 0.4043037 0.04490103
0002e0 26 90 38 bd 8f 44 48 3e db be 97 3e 43 b2 aa be
       -0.045059346 0.19557403 0.296378 -0.33339128
0002f0 e6 5d 8b bd 54 33 7d 3e 70 ca 85 3e 5c 74 19 bc
       -0.06805019 0.24726611 0.2613101 -0.009366121
000300 96 ad b5 be 6d b8 8a bd 6c 39 5a 3d c1 de ee 3e
       -0.35483998 -0.06773458 0.053277418 0.46654323
000310 79 85 09 3e ad 7d 18 be d1 68 03 bc 25 3e 10 3d
       0.13429822 -0.14891692 -0.008020596 0.035215516
000320 31 50 03 3e 67 e9 48 3e 56 a8 e1 3e 7d 1a 24 3d
       0.1282356 0.19620286 0.44073743 0.040064324
000330 00 f8 50 3e 8c 76 7e be 47 ce b2 bd 1e 07 93 bd
       0.20407104 -0.2484991 -0.087307505 -0.07179092
000340 07 f4 16 3e b4 52 3f 3e b2 96 bd bd 01 54 78 bd
       0.14741527 0.18683892 -0.092572585 -0.060626987
000350 e3 65 70 bd 3a bd 49 be 26 dc 4b be cb cf 98 3e
       -0.058690917 -0.1970109 -0.19908199 0.29846033
000360 65 ff 9b bd ea f4 30 be dc f3 52 be af 4e 8f be
       -0.07617072 -0.17280927 -0.20600837 -0.27989718
000370 8b ff 9f bd 56 ba f0 bd a1 5d 61 ba 3b f4 ec bc
       -0.07812413 -0.11754291 -0.00085970206 -0.028925052
000380 56 10 33 be 4b 5a 92 3d 81 e6 9f bd 41 69 6d 3e
       -0.174867 0.07146128 -0.07807637 0.23184682
000390 ea 86 04 3e ea 2d 6e 3d 72 30 e8 3b fd 85 1d 3e
       0.1294209 0.058149256 0.0070858533 0.15383144
0003a0 f5 2a 37 bc ce da 06 3f 3b 64 8b 3d 82 1d a3 3d
       -0.011179675 0.5267762 0.06806227 0.079646125
0003b0 66 4b 10 3e b7 4d 7a 3e 59 31 9a bd b0 cc f2 bc
       0.14091262 0.24443708 -0.075289436 -0.029638618
0003c0 e9 fa f7 3d 11 26 a7 bd 05 83 9b be f7 ca 59 be
       0.12108404 -0.081615575 -0.30373397 -0.21268831
0003d0 d1 84 0f 3e e9 4f 1c 3d 6f b7 ca 3e 4e fe 1a be
       0.14015509 0.038162146 0.39593074 -0.15136072
0003e0 e7 21 2e be 7b 80 19 3e 73 da 6c 3e 24 34 21 3e
       -0.1700512 0.14990418 0.23130207 0.15742546
0003f0 cc 9f 63 be 1d 71 1b 3d 7a 0a 1c be c2 56 30 be
       -0.22228926 0.03794967 -0.15238371 -0.17220595

action_net.bias f4 [12]
000000 27 58 13 bf 66 c3 1b 3e 25 95 00 3f 9a 82 34 3f
       -0.57556385 0.15211257 0.50227576 0.7051178
000010 5f 83 e0 3d 93 36 bf 3e 89 99 22 3e b4 7d 0c 3d
       0.10962557 0.37346324 0.15878882 0.034299567
000020 c6 04 a2 3e 0f 87 73 3d 87 b0 78 3d a4 c9 a5 3e
       0.31644267 0.059454974 0.060715225 0.32380402

value_net.weight f4 [1, 64]
000000 f3 7b 10 bf 84 3b 71 3e 75 a7 41 3f ea 7a 20 3f
       -0.5643913 0.2355786 0.75646144 0.6268755
000010 c4 3c 96 bf 87 50 6d bf 67 7f ab 3e 9a 5a 94 bf
       -1.1737294 -0.92701 0.33495638 -1.1590149
000020 5a 6b c2 3f 0f 0b ed be 29 3e 89 bf ed 16 b7 3e
       1.5189011 -0.462975 -1.0722095 0.35759678
000030 33 0e 12 3f 1a be ff 3e bf 07 95 3e 94 9c 80 3f
       0.57052916 0.49949723 0.29107472 1.0047784
000040 e8 bd 1d 3f 14 41 a3 3f a9 39 c5 3e e4 ff 9d 3e
       0.616179 1.2754235 0.38520554 0.30859292
000050 8b b7 00 3f 8e 93 48 3f 23 26 73 bf 1f ee 1e bf
       0.50280064 0.7835015 -0.94980067 -0.62082094
000060 a3 bc 2e bf 89 dd 80 bf 9a 1c 32 bf 8e b3 1c bf
       -0.68256587 -1.0067607 -0.6957489 -0.6121148
000070 60 be 75 bf 65 3e 01 40 8d 6e ef be a5 dc 11 3f
       -0.95993614 2.0194333 -0.4676403 0.569773
000080 87 d7 ca be 2b 72 10 bf 45 7c 60 bf 85 dc 3a bf
       -0.3961756 -0.56424206 -0.8768962 -0.72992736
000090 fa 75 36 bf fc bf 8a 3f 75 59 b1 bf 97 b5 a5 be
       -0.7127377 1.0839839 -1.3855425 -0.32365105
0000a0 36 5b 4a bf ae 1f b6 be b3 bb 57 be 4d 3e b4 3f
       -0.79045427 -0.35571045 -0.21067695 1.4081513
0000b0 74 7f 56 3f 4a 63 c9 3e 33 13 07 3f de 3b dc 3f
       0.8378823 0.39333564 0.5276367 1.720577
0000c0 f0 6e 57 3f 1d d3 d3 3e eb 51 65 bf 67 01 c1 3e
       0.8415365 0.41372004 -0.8957812 0.37696382
0000d0 24 a9 ab bf 4f e5 6e bf bf 8a 84 bf 1e a3 d2 be
       -1.3410993 -0.9331865 -1.0354842 -0.41140074
0000e0 8e 4f f8 3e 1a 3c d2 3f 19 c0 ef 3e bf ad 9c 3f
       0.48498195 1.6424592 0.46826246 1.2240523
0000f0 62 85 f8 3f 11 b3 66 3f c6 ed a8 be f5 1b 2f 3f
       1.9415705 0.90116984 -0.32993907 0.68402034
